…
          "base_uri": "https://localhost:8080/"
        },
        "id": "OtAgbPnpYHdQ",
        "outputId": "e8c3b204-32ee-4334-fd02-87868150fbda"
      },
      "outputs": [
        {
          "name": "stdout",
          "output_type": "stream",
          "text": [
            "Model: \"sequential_5\"\n",
            "_________________________________________________________________\n",
            " Layer (type)                Output Shape              Param #   \n",
            "=================================================================\n",
            " conv2d_26 (Conv2D)          (None, 48, 48, 64)        1792      \n",
            "                                                                 \n",
            " batch_normalization_21 (Bat  (None, 48, 48, 64)       256       \n",
            " chNormalization)                                                \n",
            "                                                                 \n",
            " conv2d_27 (Conv2D)          (None, 48, 48, 64)        36928     \n",
            "                                                                 \n",
            " batch_normalization_22 (Bat  (None, 48, 48, 64)       256       \n",
            " chNormalization)                                                \n",
            "                                                                 \n",
            " conv2d_28 (Conv2D)          (None, 48, 48, 64)        36928     \n",
            "                                                                 \n",
            " max_pooling2d_9 (MaxPooling  (None, 24, 24, 64)       0         \n",
            " 2D)                                                             \n",
            "                                                                 \n",
            " conv2d_29 (Conv2D)          (None, 24, 24, 128)       73856     \n",
            "                                                                 \n",
            " batch_normalization_23 (Bat  (None, 24, 24, 128)      512       \n",
            " chNormalization)                                                \n",
            "                                                                 \n",
            " conv2d_30 (Conv2D)          (None, 24, 24, 128)       147584    \n",
            "                                                                 \n",
            " batch_normalization_24 (Bat  (None, 24, 24, 128)      512       \n",
            " chNormalization)                                                \n",
            "                                                                 \n",
            " conv2d_31 (Conv2D)          (None, 24, 24, 128)       147584    \n",
            "                                                                 \n",
            " max_pooling2d_10 (MaxPoolin  (None, 12, 12, 128)      0         \n",
            " g2D)                                                            \n",
            "                                                                 \n",
            " conv2d_32 (Conv2D)          (None, 12, 12, 256)       295168    \n",
            "                                                                 \n",
            " batch_normalization_25 (Bat  (None, 12, 12, 256)      1024      \n",
            " chNormalization)                                                \n",
            "                                                                 \n",
            " conv2d_33 (Conv2D)          (None, 12, 12, 256)       590080    \n",
            "                                                                 \n",
            " batch_normalization_26 (Bat  (None, 12, 12, 256)      1024      \n",
            " chNormalization)                                                \n",
            "                                                                 \n",
            " conv2d_34 (Conv2D)          (None, 12, 12, 256)       590080    \n",
            "                                                                 \n",
            " max_pooling2d_11 (MaxPoolin  (None, 6, 6, 256)        0         \n",
            " g2D)                                                            \n",
            "                                                                 \n",
            " flatten_3 (Flatten)         (None, 9216)              0         \n",
            "                                                                 \n",
            " dense_8 (Dense)             (None, 256)               2359552   \n",
            "                                                                 \n",
            " batch_normalization_27 (Bat  (None, 256)              1024      \n",
            " chNormalization)                                                \n",
            "                                                                 \n",
            " dropout_6 (Dropout)         (None, 256)               0         \n",
            "                                                                 \n",
            " dense_9 (Dense)             (None, 128)               32896     \n",
            "                                                                 \n",
            " dense_10 (Dense)            (None, 7)                 903       \n",
            "                                                                 \n",
            "=================================================================\n",
            "Total params: 4,317,959\n",
            "Trainable params: 4,315,655\n",
            "Non-trainable params: 2,304\n",
            "_________________________________________________________________\n"
          ]
…
